…
                                                                                             
Epoch 47/50 | Train Loss: 43746.1577 | Val Loss: 123441.5325
                                                                                             
Epoch 48/50 | Train Loss: 42779.9909 | Val Loss: 116921.7194
Best model saved at epoch 48 with Val Loss: 116921.7194
                                                                                             
Epoch 49/50 | Train Loss: 39335.3378 | Val Loss: 119767.6866
                                                                                             
Epoch 50/50 | Train Loss: 43800.6938 | Val Loss: 143254.4829

Net(
  (conv1): Conv2d(3, 32, kernel_size=(5, 5), stride=(1, 1))
  (pool): MaxPool2d(kernel_size=2, stride=2, padding=0, dilation=1, ceil_mode=False)
  (conv2): Conv2d(32, 64, kernel_size=(3, 3), stride=(1, 1))
  (conv3): Conv2d(64, 128, kernel_size=(3, 3), stride=(1, 1))
  (conv4): Conv2d(128, 256, kernel_size=(3, 3), stride=(1, 1))
  (conv5): Conv2d(256, 512, kernel_size=(1, 1), stride=(1, 1))
  (bn1): BatchNorm2d(32, eps=1e-05, momentum=0.1, affine=True, track_running_stats=True)
  (bn2): BatchNorm2d(64, eps=1e-05, momentum=0.1, affine=True, track_running_stats=True)
  (bn3): BatchNorm2d(128, eps=1e-05, momentum=0.1, affine=True, track_running_stats=True)
  (bn4): BatchNorm2d(256, eps=1e-05, momentum=0.1, affine=True, track_running_stats=True)
  (bn5): BatchNorm2d(512, eps=1e-05, momentum=0.1, affine=True, track_running_stats=True)
  (fc1): Linear(in_features=512, out_features=1024, bias=True)
  (fc2): Linear(in_features=1024, out_features=512, bias=True)
  (fc_keypoints): Linear(in_features=512, out_features=8, bias=True)
  (fc_bbox): Linear(in_features=512, out_features=4, bias=True)
  (drop1): Dropout(p=0.5, inplace=False)
)